…
Chars vocab: {'w', '?', '{', '|', '&', 'o', 'm', '2', '4', 'a', 'u', 'b', ')', '_', 'i', 'k', '[', 'y', 'e', 'n', 'h', '}', '\n', 'p', 't', '3', '>', '*', 'z', ']', '5', '/', '-', '~', '6', 'j', 'l', 'q', 'r', 'v', '#', '\\', 'd', '.', '$', ',', '9', ':', '`', '%', '(', '=', 'c', '7', 'x', "'", 'f', 'g', '1', '+', ';', '0', '<', '^', '"', '!', 's', '8', '@'}
Chars vocab size: 69
X_train.shape: (120000, 1014)
_________________________________________________________________
Layer (type)                 Output Shape              Param #   
=================================================================
input_1 (InputLayer)         (None, 1014)              0         
_________________________________________________________________
lambda_1 (Lambda)            (None, 1014, 69)          0         
_________________________________________________________________
conv1d_1 (Conv1D)            (None, 1008, 256)         123904    
_________________________________________________________________
max_pooling1d_1 (MaxPooling1 (None, 336, 256)          0         
_________________________________________________________________
conv1d_2 (Conv1D)            (None, 330, 256)          459008    
_________________________________________________________________
max_pooling1d_2 (MaxPooling1 (None, 110, 256)          0         
_________________________________________________________________
conv1d_3 (Conv1D)            (None, 108, 256)          196864    
_________________________________________________________________
conv1d_4 (Conv1D)            (None, 106, 256)          196864    
_________________________________________________________________
conv1d_5 (Conv1D)            (None, 104, 256)          196864    
_________________________________________________________________
conv1d_6 (Conv1D)            (None, 102, 256)          196864    
_________________________________________________________________
max_pooling1d_3 (MaxPooling1 (None, 34, 256)           0         
_________________________________________________________________
flatten_1 (Flatten)          (None, 8704)              0         
_________________________________________________________________
dense_1 (Dense)              (None, 1024)              8913920   
_________________________________________________________________
dropout_1 (Dropout)          (None, 1024)              0         
_________________________________________________________________
dense_2 (Dense)              (None, 1024)              1049600   
_________________________________________________________________
dropout_2 (Dropout)          (None, 1024)              0         
_________________________________________________________________
output (Dense)               (None, 4)                 4100      
=================================================================
Total params: 11,337,988
Trainable params: 11,337,988
Non-trainable params: 0
_________________________________________________________________
Fit model...
Train on 120000 samples, validate on 7600 samples
Epoch 1/20
2018-03-18 17:51:32.515700: I tensorflow/core/common_runtime/gpu/gpu_device.cc:1212] Found device 0 with properties: 
…
